Model: "functional_102"
┏━━━━━━━━━━━━━━━━━━━━━┳━━━━━━━━━━━━━━━━━━━┳━━━━━━━━━━━━┳━━━━━━━━━━━━━━━━━━━┓
┃ Layer (type)        ┃ Output Shape      ┃    Param # ┃ Connected to      ┃
┡━━━━━━━━━━━━━━━━━━━━━╇━━━━━━━━━━━━━━━━━━━╇━━━━━━━━━━━━╇━━━━━━━━━━━━━━━━━━━┩
│ input_layer_8       │ (None, 48, 48, 1) │          0 │ -                 │
│ (InputLayer)        │                   │            │                   │
├─────────────────────┼───────────────────┼────────────┼───────────────────┤
│ conv2d_54 (Conv2D)  │ (None, 46, 46, 8) │         72 │ input_layer_8[0]… │
├─────────────────────┼───────────────────┼────────────┼───────────────────┤
│ batch_normalizatio… │ (None, 46, 46, 8) │         32 │ conv2d_54[0][0]   │
│ (BatchNormalizatio… │                   │            │                   │
├─────────────────────┼───────────────────┼────────────┼───────────────────┤
│ activation_34       │ (None, 46, 46, 8) │          0 │ batch_normalizat… │
│ (Activation)        │                   │            │                   │
├─────────────────────┼───────────────────┼────────────┼───────────────────┤
│ conv2d_55 (Conv2D)  │ (None, 44, 44, 8) │        576 │ activation_34[0]… │
├─────────────────────┼───────────────────┼────────────┼───────────────────┤
│ batch_normalizatio… │ (None, 44, 44, 8) │         32 │ conv2d_55[0][0]   │
│ (BatchNormalizatio… │                   │            │                   │
├─────────────────────┼───────────────────┼────────────┼───────────────────┤
│ activation_35       │ (None, 44, 44, 8) │          0 │ batch_normalizat… │
│ (Activation)        │                   │            │                   │
├─────────────────────┼───────────────────┼────────────┼───────────────────┤
│ separable_conv2d_26 │ (None, 44, 44,    │        200 │ activation_35[0]… │
│ (SeparableConv2D)   │ 16)               │            │                   │
├─────────────────────┼───────────────────┼────────────┼───────────────────┤
…
│ (Activation)        │ 64)               │            │                   │
├─────────────────────┼───────────────────┼────────────┼───────────────────┤
│ separable_conv2d_31 │ (None, 11, 11,    │      4,672 │ activation_38[0]… │
│ (SeparableConv2D)   │ 64)               │            │                   │
├─────────────────────┼───────────────────┼────────────┼───────────────────┤
│ batch_normalizatio… │ (None, 11, 11,    │        256 │ separable_conv2d… │
│ (BatchNormalizatio… │ 64)               │            │                   │
├─────────────────────┼───────────────────┼────────────┼───────────────────┤
│ conv2d_58 (Conv2D)  │ (None, 6, 6, 64)  │      2,048 │ add_13[0][0]      │
├─────────────────────┼───────────────────┼────────────┼───────────────────┤
│ max_pooling2d_14    │ (None, 6, 6, 64)  │          0 │ batch_normalizat… │
│ (MaxPooling2D)      │                   │            │                   │
├─────────────────────┼───────────────────┼────────────┼───────────────────┤
│ batch_normalizatio… │ (None, 6, 6, 64)  │        256 │ conv2d_58[0][0]   │
│ (BatchNormalizatio… │                   │            │                   │
├─────────────────────┼───────────────────┼────────────┼───────────────────┤
│ add_14 (Add)        │ (None, 6, 6, 64)  │          0 │ max_pooling2d_14… │
│                     │                   │            │ batch_normalizat… │
├─────────────────────┼───────────────────┼────────────┼───────────────────┤
│ separable_conv2d_32 │ (None, 6, 6, 128) │      8,768 │ add_14[0][0]      │
│ (SeparableConv2D)   │                   │            │                   │
├─────────────────────┼───────────────────┼────────────┼───────────────────┤
│ batch_normalizatio… │ (None, 6, 6, 128) │        512 │ separable_conv2d… │
│ (BatchNormalizatio… │                   │            │                   │
├─────────────────────┼───────────────────┼────────────┼───────────────────┤
│ activation_39       │ (None, 6, 6, 128) │          0 │ batch_normalizat… │
│ (Activation)        │                   │            │                   │
├─────────────────────┼───────────────────┼────────────┼───────────────────┤
│ separable_conv2d_33 │ (None, 6, 6, 128) │     17,536 │ activation_39[0]… │
│ (SeparableConv2D)   │                   │            │                   │
├─────────────────────┼───────────────────┼────────────┼───────────────────┤
│ batch_normalizatio… │ (None, 6, 6, 128) │        512 │ separable_conv2d… │
│ (BatchNormalizatio… │                   │            │                   │
├─────────────────────┼───────────────────┼────────────┼───────────────────┤
│ conv2d_59 (Conv2D)  │ (None, 3, 3, 128) │      8,192 │ add_14[0][0]      │
├─────────────────────┼───────────────────┼────────────┼───────────────────┤
│ max_pooling2d_15    │ (None, 3, 3, 128) │          0 │ batch_normalizat… │
│ (MaxPooling2D)      │                   │            │                   │
├─────────────────────┼───────────────────┼────────────┼───────────────────┤
│ batch_normalizatio… │ (None, 3, 3, 128) │        512 │ conv2d_59[0][0]   │
│ (BatchNormalizatio… │                   │            │                   │
├─────────────────────┼───────────────────┼────────────┼───────────────────┤
│ add_15 (Add)        │ (None, 3, 3, 128) │          0 │ max_pooling2d_15… │
│                     │                   │            │ batch_normalizat… │
├─────────────────────┼───────────────────┼────────────┼───────────────────┤
│ conv2d_60 (Conv2D)  │ (None, 3, 3, 7)   │      8,071 │ add_15[0][0]      │
├─────────────────────┼───────────────────┼────────────┼───────────────────┤
│ global_average_poo… │ (None, 7)         │          0 │ conv2d_60[0][0]   │
│ (GlobalAveragePool… │                   │            │                   │
├─────────────────────┼───────────────────┼────────────┼───────────────────┤
│ predictions         │ (None, 7)         │          0 │ global_average_p… │
│ (Activation)        │                   │            │                   │
└─────────────────────┴───────────────────┴────────────┴───────────────────┘
 Total params: 58,423 (228.21 KB)
 Trainable params: 56,951 (222.46 KB)
 Non-trainable params: 1,472 (5.75 KB)

