Model: "functional_101"
┏━━━━━━━━━━━━━━━━━━━━━┳━━━━━━━━━━━━━━━━━━━┳━━━━━━━━━━━━┳━━━━━━━━━━━━━━━━━━━┓
┃ Layer (type)        ┃ Output Shape      ┃    Param # ┃ Connected to      ┃
┡━━━━━━━━━━━━━━━━━━━━━╇━━━━━━━━━━━━━━━━━━━╇━━━━━━━━━━━━╇━━━━━━━━━━━━━━━━━━━┩
│ input_layer_7       │ (None, 48, 48, 1) │          0 │ -                 │
│ (InputLayer)        │                   │            │                   │
├─────────────────────┼───────────────────┼────────────┼───────────────────┤
│ conv2d_47 (Conv2D)  │ (None, 46, 46, 5) │         45 │ input_layer_7[0]… │
├─────────────────────┼───────────────────┼────────────┼───────────────────┤
│ batch_normalizatio… │ (None, 46, 46, 5) │         20 │ conv2d_47[0][0]   │
│ (BatchNormalizatio… │                   │            │                   │
├─────────────────────┼───────────────────┼────────────┼───────────────────┤
│ activation_28       │ (None, 46, 46, 5) │          0 │ batch_normalizat… │
│ (Activation)        │                   │            │                   │
├─────────────────────┼───────────────────┼────────────┼───────────────────┤
│ conv2d_48 (Conv2D)  │ (None, 44, 44, 5) │        225 │ activation_28[0]… │
├─────────────────────┼───────────────────┼────────────┼───────────────────┤
│ batch_normalizatio… │ (None, 44, 44, 5) │         20 │ conv2d_48[0][0]   │
│ (BatchNormalizatio… │                   │            │                   │
├─────────────────────┼───────────────────┼────────────┼───────────────────┤
│ activation_29       │ (None, 44, 44, 5) │          0 │ batch_normalizat… │
│ (Activation)        │                   │            │                   │
├─────────────────────┼───────────────────┼────────────┼───────────────────┤
│ separable_conv2d_18 │ (None, 44, 44, 8) │         85 │ activation_29[0]… │
│ (SeparableConv2D)   │                   │            │                   │
├─────────────────────┼───────────────────┼────────────┼───────────────────┤
│ batch_normalizatio… │ (None, 44, 44, 8) │         32 │ separable_conv2d… │
│ (BatchNormalizatio… │                   │            │                   │
├─────────────────────┼───────────────────┼────────────┼───────────────────┤
│ activation_30       │ (None, 44, 44, 8) │          0 │ batch_normalizat… │
│ (Activation)        │                   │            │                   │
├─────────────────────┼───────────────────┼────────────┼───────────────────┤
│ separable_conv2d_19 │ (None, 44, 44, 8) │        136 │ activation_30[0]… │
│ (SeparableConv2D)   │                   │            │                   │
├─────────────────────┼───────────────────┼────────────┼───────────────────┤
│ batch_normalizatio… │ (None, 44, 44, 8) │         32 │ separable_conv2d… │
│ (BatchNormalizatio… │                   │            │                   │
├─────────────────────┼───────────────────┼────────────┼───────────────────┤
│ conv2d_49 (Conv2D)  │ (None, 22, 22, 8) │         40 │ activation_29[0]… │
├─────────────────────┼───────────────────┼────────────┼───────────────────┤
│ max_pooling2d_8     │ (None, 22, 22, 8) │          0 │ batch_normalizat… │
│ (MaxPooling2D)      │                   │            │                   │
├─────────────────────┼───────────────────┼────────────┼───────────────────┤
│ batch_normalizatio… │ (None, 22, 22, 8) │         32 │ conv2d_49[0][0]   │
│ (BatchNormalizatio… │                   │            │                   │
├─────────────────────┼───────────────────┼────────────┼───────────────────┤
│ add_8 (Add)         │ (None, 22, 22, 8) │          0 │ max_pooling2d_8[… │
│                     │                   │            │ batch_normalizat… │
├─────────────────────┼───────────────────┼────────────┼───────────────────┤
│ separable_conv2d_20 │ (None, 22, 22,    │        200 │ add_8[0][0]       │
│ (SeparableConv2D)   │ 16)               │            │                   │
├─────────────────────┼───────────────────┼────────────┼───────────────────┤
…
│ (Activation)        │ 32)               │            │                   │
├─────────────────────┼───────────────────┼────────────┼───────────────────┤
│ separable_conv2d_23 │ (None, 11, 11,    │      1,312 │ activation_32[0]… │
│ (SeparableConv2D)   │ 32)               │            │                   │
├─────────────────────┼───────────────────┼────────────┼───────────────────┤
│ batch_normalizatio… │ (None, 11, 11,    │        128 │ separable_conv2d… │
│ (BatchNormalizatio… │ 32)               │            │                   │
├─────────────────────┼───────────────────┼────────────┼───────────────────┤
│ conv2d_51 (Conv2D)  │ (None, 6, 6, 32)  │        512 │ add_9[0][0]       │
├─────────────────────┼───────────────────┼────────────┼───────────────────┤
│ max_pooling2d_10    │ (None, 6, 6, 32)  │          0 │ batch_normalizat… │
│ (MaxPooling2D)      │                   │            │                   │
├─────────────────────┼───────────────────┼────────────┼───────────────────┤
│ batch_normalizatio… │ (None, 6, 6, 32)  │        128 │ conv2d_51[0][0]   │
│ (BatchNormalizatio… │                   │            │                   │
├─────────────────────┼───────────────────┼────────────┼───────────────────┤
│ add_10 (Add)        │ (None, 6, 6, 32)  │          0 │ max_pooling2d_10… │
│                     │                   │            │ batch_normalizat… │
├─────────────────────┼───────────────────┼────────────┼───────────────────┤
│ separable_conv2d_24 │ (None, 6, 6, 64)  │      2,336 │ add_10[0][0]      │
│ (SeparableConv2D)   │                   │            │                   │
├─────────────────────┼───────────────────┼────────────┼───────────────────┤
│ batch_normalizatio… │ (None, 6, 6, 64)  │        256 │ separable_conv2d… │
│ (BatchNormalizatio… │                   │            │                   │
├─────────────────────┼───────────────────┼────────────┼───────────────────┤
│ activation_33       │ (None, 6, 6, 64)  │          0 │ batch_normalizat… │
│ (Activation)        │                   │            │                   │
├─────────────────────┼───────────────────┼────────────┼───────────────────┤
│ separable_conv2d_25 │ (None, 6, 6, 64)  │      4,672 │ activation_33[0]… │
│ (SeparableConv2D)   │                   │            │                   │
├─────────────────────┼───────────────────┼────────────┼───────────────────┤
│ batch_normalizatio… │ (None, 6, 6, 64)  │        256 │ separable_conv2d… │
│ (BatchNormalizatio… │                   │            │                   │
├─────────────────────┼───────────────────┼────────────┼───────────────────┤
│ conv2d_52 (Conv2D)  │ (None, 3, 3, 64)  │      2,048 │ add_10[0][0]      │
├─────────────────────┼───────────────────┼────────────┼───────────────────┤
│ max_pooling2d_11    │ (None, 3, 3, 64)  │          0 │ batch_normalizat… │
│ (MaxPooling2D)      │                   │            │                   │
├─────────────────────┼───────────────────┼────────────┼───────────────────┤
│ batch_normalizatio… │ (None, 3, 3, 64)  │        256 │ conv2d_52[0][0]   │
│ (BatchNormalizatio… │                   │            │                   │
├─────────────────────┼───────────────────┼────────────┼───────────────────┤
│ add_11 (Add)        │ (None, 3, 3, 64)  │          0 │ max_pooling2d_11… │
│                     │                   │            │ batch_normalizat… │
├─────────────────────┼───────────────────┼────────────┼───────────────────┤
│ conv2d_53 (Conv2D)  │ (None, 3, 3, 7)   │      4,039 │ add_11[0][0]      │
├─────────────────────┼───────────────────┼────────────┼───────────────────┤
│ global_average_poo… │ (None, 7)         │          0 │ conv2d_53[0][0]   │
│ (GlobalAveragePool… │                   │            │                   │
├─────────────────────┼───────────────────┼────────────┼───────────────────┤
│ predictions         │ (None, 7)         │          0 │ global_average_p… │
│ (Activation)        │                   │            │                   │
└─────────────────────┴───────────────────┴────────────┴───────────────────┘
 Total params: 18,314 (71.54 KB)
 Trainable params: 17,574 (68.65 KB)
 Non-trainable params: 740 (2.89 KB)

